pytorch复习/4.COVID-19CasesPrediction/models/model.ckpt (torch, 10199 bytes, 5 tensors)

layers.0.weight f4 [16, 117]
000000 9d d0 d9 bb 61 11 b8 3d c4 b4 65 3d c6 8b 12 39
       -0.006647183 0.0898769 0.056080595 0.00013975715
000010 6b eb 9f 3d d6 74 93 3c c9 be b4 bc 5d 4c 07 3d
       0.07808574 0.018000048 -0.02206363 0.03303181
000020 57 10 30 3d 15 5d 5a 3c 36 b9 8e bc b7 58 89 bc
       0.042984333 0.013327857 -0.0174223 -0.016765935
000030 6a bc 87 bc 50 8b 2e bc cf e8 9b 3c 67 ab 44 3c
       -0.016569335 -0.010653332 0.01903191 0.012003756
000040 ba 81 43 3d 3d 17 a9 3c 35 b3 b5 3d 4b c7 88 3d
       0.04773114 0.020640964 0.08872072 0.06678637
000050 1f c5 86 3d 49 c1 5e bd 98 ad 89 3d df 0d 9e 3d
       0.065805666 -0.05438355 0.067225635 0.077174895
000060 34 41 80 3d a1 df 2e bd e7 5d 51 3d 79 1c 90 3d
       0.062624365 -0.042693738 0.051114943 0.07036681
000070 47 4f b5 bd d0 6b 83 3d 71 f2 60 3d e9 9f a5 bd
       -0.088530116 0.06417048 0.05491871 -0.08087141
000080 b3 bd 5e bc 3c e8 f1 bc 98 3e 84 bc 81 df 17 3d
       -0.0135950325 -0.029529683 -0.016143128 0.037078384
000090 f7 4f c3 bc c8 2b 92 bd aa b0 34 3d 62 ed 68 3d
       -0.023841841 -0.07137257 0.044113792 0.05686701
0000a0 a1 88 0d 3d 69 9c 07 3e ff 8d 6f bd 37 fc 48 bd
       0.034554128 0.1324326 -0.058485027 -0.049068656
0000b0 a3 6a 67 bd 06 ab 9c bd 0a fc c7 3d ab ba c8 bc
       -0.05649818 -0.07649808 0.097648695 -0.024503073
0000c0 5c 06 94 3d 58 c0 c5 bd 93 3b b1 bd ee 37 74 3d
       0.072277755 -0.09655827 -0.08653941 0.05962365
0000d0 54 3d 12 3d 6f 69 26 3e eb c6 5c 3d 82 39 41 bd
       0.03570302 0.16251157 0.05390064 -0.047173984
0000e0 5e 2b 40 3d 14 ff 97 bc 67 ad 3b bc d7 1e 8f 3b
       0.04691636 -0.018554248 -0.011454917 0.00436769
0000f0 3a 4b 68 bd df 7a 9a bd f3 4c e3 3a f9 ef 7d 3c
       -0.056712367 -0.07542967 0.0017341658 0.0154991085
000100 fe 75 10 bc 7b b5 cb bd 2d 9b cb 3c 94 dc 27 3c
       -0.008817194 -0.09946724 0.024854267 0.010245461
000110 2e 35 b3 3d a3 6a 9d 3e a7 d2 41 3d bc d9 81 3d
       0.087503776 0.3074542 0.047320034 0.06340358
000120 7d b5 5d bc 72 2a ca ba 6b 42 05 3d 60 f8 d8 3d
       -0.01353204 -0.0015424027 0.032534044 0.10594249
000130 75 7a 96 3d f0 bb 18 bd 20 e9 bf 3d ff c7 c6 bd
       0.073475756 -0.037288606 0.09370637 -0.09706115
000140 87 16 88 3d 76 dc 51 bd f1 6e fe 3c 34 e5 8d 3d
       0.06644922 -0.05123564 0.03105876 0.06928483
000150 a0 90 ac 3d 7d c2 ba 3e 61 c2 7a 3d d3 2b 90 bc
       0.084260225 0.36476508 0.06122053 -0.017599022
000160 cb 2b 81 3d ba 5d 1e 3d d9 f0 19 3d 0e 0b 99 3c
       0.06307181 0.038663603 0.037583206 0.01868203
000170 20 7e 15 bd bf 0b 3b bd f4 e6 5b 3c a9 b5 eb 3c
       -0.036497235 -0.0456655 0.013421763 0.028773146
000180 9e 84 d6 3d 04 4b a5 bc 01 f4 bf bd 89 40 0d 3d
       0.104745135 -0.020177372 -0.09372712 0.034485374
000190 aa 67 3f bd f4 cc c0 3e 91 73 6a 3d a2 52 64 3c
       -0.04672972 0.37656367 0.05723912 0.013935717
0001a0 a9 d5 8e 3d 61 99 b4 3d 0a 25 d1 3c 18 73 b2 3d
       0.06974346 0.08818317 0.025530357 0.08713359
0001b0 b3 91 ec bc fa fb 78 3d b5 3c ed 3c 4b 06 66 3c
       -0.028878069 0.06078718 0.028959611 0.014039586
0001c0 1c 47 1f bd 27 c6 cd bc be c9 6b 3d 3d 11 e0 3c
       -0.038886175 -0.0251189 0.057565443 0.02735197
0001d0 92 27 56 3b a9 fc 1b 3c 93 cb bf 3c 4a e1 90 3d
       0.0032677394 0.009520688 0.023412501 0.070742205
0001e0 4b 55 b8 3d f3 33 cf bb d5 a4 95 3c e6 fe 21 bc
       0.09000643 -0.0063233315 0.018267075 -0.009887433
0001f0 0f 14 4a 3d 29 91 30 bd da 16 6c 3d dd 76 86 3c
       0.049335536 -0.043107186 0.05763898 0.0164141
000200 6c 0c 89 bb a9 53 aa 3c d0 49 88 3d 3b 9e fa bc
       -0.004182389 0.020791845 0.066547036 -0.030593028
000210 5f 70 bc bd 24 84 4d bb 06 6f 92 bd 99 9a 75 3d
       -0.092011206 -0.003135928 -0.07150082 0.05996189
000220 b6 2d bc 3d de b9 c9 3c 29 37 be 3d 88 20 7b 3d
       0.09188406 0.024624761 0.09287865 0.06131032
000230 bc 64 11 bd 24 26 9b 3d 48 ab a9 bd cd 46 98 bd
       -0.03549646 0.07575634 -0.082846224 -0.07435379
000240 8b cf 4c bd 3d 98 14 bd 41 37 48 3c 29 92 0f 3d
       -0.050002616 -0.036278 0.012220205 0.0350515
000250 44 6f bc 3d c4 41 d8 bb 13 4c 53 bd 97 2a e4 3c
       0.0920091 -0.0065996367 -0.051586222 0.02785234
000260 b7 f6 f7 3b 6a db 6f bd 60 5e 18 bc 9c 46 09 bd
       0.0075672525 -0.05855886 -0.0092998445 -0.033514604
000270 14 5b 51 3d 67 8e 9b 3d f5 79 8e 3d c1 f5 fc 3c
       0.05111225 0.075955205 0.06956855 0.030878903
000280 cc 05 ab bc ef e6 a6 3d 0d db ee 3c b4 93 3b 3d
       -0.020876788 0.08149516 0.029157186 0.045795158
000290 a4 bf 86 bd a3 0f 9f bb f3 06 ae 3c 12 72 92 3d
       -0.06579521 -0.004854159 0.021243548 0.071506634
0002a0 8a 81 c0 bd 50 73 da bc e2 38 94 3d d7 34 f8 bc
       -0.093997076 -0.026666313 0.07237412 -0.030298634
0002b0 b3 74 05 bd 91 89 05 bc 29 11 17 3d 3a 48 45 3d
       -0.032581996 -0.008150474 0.0368816 0.048164584
0002c0 43 85 97 3d f6 02 4b 3d 73 00 c5 3b 32 c7 5c 3c
       0.073984645 0.04956337 0.0060120164 0.013475226
0002d0 ad 1a 49 3d 67 55 be 3c f0 de 11 3d 9e c5 18 bd
       0.049097706 0.023234082 0.035613 -0.037297837
0002e0 f7 5e 71 bd a0 a2 70 3c f5 be 28 3e d6 f0 66 bd
       -0.058928456 0.01468721 0.16479094 -0.056382023
0002f0 72 d5 c3 bc 3f 8e 20 3c 78 94 d2 bc 32 7e 7f 3d
       -0.02390549 0.009799539 -0.025705561 0.06237621
000300 4d e8 e5 bc 2c e6 d6 bc a1 cd 37 3d f6 94 53 3d
       -0.028064871 -0.026232801 0.044873837 0.051655732
000310 ed 09 bd bc 77 56 aa bc 2c 96 51 3d 32 2d 45 3d
       -0.023076022 -0.020793183 0.051168606 0.048138805
000320 4a ed 7a 3d c6 27 92 3d db 13 54 3e 8e d7 14 3b
       0.061261453 0.071364924 0.207107 0.0022711488
000330 45 6d 35 bb c0 2b c4 bc 47 e3 da 3d 01 cd 30 3d
       -0.0027683538 -0.023946643 0.10687881 0.043164257
000340 4b 8c 3b 3c 6b 66 a6 3d bb 64 a6 bd d9 38 d0 3d
       0.011447023 0.081250034 -0.081246816 0.10167093
000350 9b 65 0f bd 4b 03 64 bd 01 00 6c bd db 5a a1 3d
       -0.035009008 -0.055667203 -0.05761719 0.078786574
000360 1f f1 45 bb c2 f4 a9 bd 20 eb fb 3d 58 71 c7 3c
       -0.0030203534 -0.08298637 0.12300706 0.024346039
000370 6f 9e 8d 3d a6 34 b5 3d 05 a6 f8 3c 15 59 b3 3c
       0.069149844 0.088479325 0.030352602 0.021893064
000380 5e 4e d3 bc 45 d1 83 3d 25 9c 33 3d d4 9f 1b bd
       -0.025794204 0.06436399 0.043850083 -0.03799422
000390 85 bd a3 3d 0c b9 9a 3d ee 98 aa 3c d4 5b 49 3d
       0.07995132 0.07554826 0.020824876 0.04915984
0003a0 93 83 b3 bd f5 1e 92 3c 48 a2 2e bd aa ba a6 bd
       -0.0876533 0.017837027 -0.042635232 -0.08141072
0003b0 37 46 81 bc f6 95 f3 bc cf 64 3c 3d 1c c0 95 3d
       -0.015780551 -0.029734593 0.045994576 0.073120326
0003c0 e0 6b 90 3d 8f 0c 35 b8 f0 71 0a bd ac 1a 53 3d
       0.070518255 -4.316546e-05 -0.033800066 0.05153911
0003d0 c1 3a 9b bd 81 27 b1 3b 3e 0c 71 bd 1f ce b2 3b
       -0.07579566 0.0054063206 -0.058849566 0.0054567005
0003e0 6a 0e 72 bd 74 55 38 bc 96 b0 23 bd 98 90 21 3a
       -0.059095778 -0.011250842 -0.039963327 0.0006163209
0003f0 c7 53 75 3b 65 9d 92 bd d3 3e 40 3d c5 2c 9d 3d
       0.0037433968 -0.07158927 0.046934914 0.07674555

layers.0.bias f4 [16]
000000 d3 e9 a3 3c 6c 14 85 3d cb d9 a8 bd ba c6 58 bd
       0.020008957 0.06498036 -0.08244666 -0.052923895
000010 34 2d 69 bc 8b 94 b6 bd 49 22 b1 bd 60 2c 90 bd
       -0.014231969 -0.08915051 -0.086491175 -0.07039714
000020 4f 13 76 3d 20 17 4b bc 12 65 a9 bd 33 d5 73 bd
       0.060077008 -0.01239565 -0.08271231 -0.059529494
000030 72 fe 3f 3d a2 91 56 3d 60 ab 85 3d 93 a8 f0 bc
       0.046873517 0.05238498 0.06526828 -0.029377257

layers.2.weight f4 [8, 16]
000000 d5 01 b1 3d 8a 37 62 3d b4 cf b3 bd c0 6f 71 bd
       0.086429276 0.055228747 -0.087798506 -0.058944464
000010 43 cf 4b 3d 73 f4 4a 3e ff 27 b1 bd f7 3f 69 3e
       0.049758207 0.19819812 -0.08650207 0.22778307
000020 fe 34 2e 3d 36 e2 48 be bc 0e e8 3d 12 4b 44 be
       0.042531006 -0.19617543 0.11330935 -0.19169262
000030 96 1c 18 be da 5b 81 bd 36 15 1c be e3 2a 5c 3d
       -0.14854655 -0.063163474 -0.15242466 0.053751837
000040 0f 6c 22 bd c1 94 b8 3b 66 ed 4d 3e 1f c0 7e 3e
       -0.039653834 0.005632967 0.20110092 0.24877976
000050 55 e7 da 3d 26 0a 37 3e 34 93 32 3e 82 dd 9e bd
       0.10688654 0.17874965 0.17438966 -0.07757093
000060 0a b2 bf 3c a8 21 ef bd e8 f5 0d 3e 51 81 83 bd
       0.023400325 -0.11676341 0.13863337 -0.064211495
000070 40 9b b6 bb 12 50 be 3c c4 b7 47 3c 57 d1 1e 3e
       -0.0055727065 0.02323154 0.012189809 0.15509544
000080 7b 96 59 3e af c1 cb bc c0 58 4f 3d c1 21 24 be
       0.2124881 -0.024872629 0.050621748 -0.16028501
000090 57 7a 12 3c a2 93 15 3e 46 71 61 be 22 3f 55 3e
       0.008940301 0.14607099 -0.22015867 0.20824865
0000a0 cb ea 32 3c 78 fb 70 3d aa 33 79 3e 88 1e 78 3e
       0.010920237 0.05883357 0.24336115 0.24230397
0000b0 40 2f a6 bc 22 65 73 be d7 bf 8a be 27 31 4b 3e
       -0.020286202 -0.23769048 -0.27099487 0.19842969
0000c0 77 94 23 3e f2 c4 38 3e d3 75 ad 3d f1 f1 31 be
       0.15974604 0.18043879 0.08469739 -0.1737745
0000d0 37 8c 2a 3e 69 5f ab 3c c3 1d a9 bd 84 21 b4 3d
       0.1665505 0.020919519 -0.0825763 0.08795455
0000e0 fc 20 10 3e e0 1b e6 3c 74 16 f9 3d 56 f8 b5 bd
       0.14075083 0.028089464 0.12162486 -0.08885257
0000f0 84 24 a0 bd 58 97 1d 3e 1a b3 0f be e2 bc 54 3e
       -0.07819465 0.15389764 -0.14033166 0.20775178
000100 e4 a4 37 3d ad d1 14 3d d6 8e 3f 3c ce 1c 76 3e
       0.044834986 0.036332775 0.01169177 0.24034426
000110 70 cb 0d be cb 4a 15 be c2 fe 9c 3d d8 8f b1 3c
       -0.13847136 -0.14579313 0.07665779 0.021675035
000120 dc b0 4b 3d 80 9e 13 3b 6c d6 34 be ca 91 08 3e
       0.049729213 0.0022524893 -0.1765992 0.13336864
000130 08 54 20 3d 9a e3 b0 bc b5 a1 88 3c 56 6d 0c be
       0.03914264 -0.021592904 0.01667867 -0.13713583
000140 82 73 64 be 43 79 e2 3d 9f d3 02 3e 6e a7 41 3e
       -0.22309688 0.11058285 0.1277604 0.18911526
000150 3d bc 28 3e ce 69 e3 3d 6c 8c fb 3d c8 65 52 bd
       0.16478057 0.11104165 0.12282643 -0.051366597
000160 26 44 16 be fc c9 1e be e6 c1 53 3e b5 03 5b 3e
       -0.14674434 -0.15506738 0.20679435 0.21388133
000170 88 02 17 bd 34 64 89 bb ec 6b 1e be 4a 11 3a 3d
       -0.03686765 -0.0041928533 -0.15470856 0.045426644
000180 a8 ce 57 3e c5 3b 48 be 58 b4 3e 3e c5 83 3d be
       0.21074927 -0.1955405 0.18623483 -0.18507297
000190 65 f6 53 3e 1e 4c 0b 3e f3 d5 1c be b8 6f b3 bd
       0.20699461 0.13603255 -0.1531599 -0.08761543
0001a0 20 71 31 3e a0 4e a3 bd a0 7f 1e bd 5d 6f 72 be
       0.1732831 -0.07973981 -0.03869593 -0.23675294
0001b0 56 38 7f 3e b2 f4 41 3e 43 7b 0c 3e 9d 8f 87 bd
       0.24923834 0.18941 0.13718896 -0.06619189
0001c0 b6 00 85 3e 64 a8 e4 3d 09 3d eb bd e6 d2 ee bd
       0.25977105 0.111649305 -0.11486251 -0.116613194
0001d0 83 fb 09 be 11 6b 26 bd 2a 0f 3e be 1d 13 62 3e
       -0.1347485 -0.04062945 -0.18560472 0.22077604
0001e0 ba 2f 11 be 26 02 12 3e fe 1e 07 3e 46 6e 25 3e
       -0.14178362 0.14258632 0.13195416 0.16155347
0001f0 62 06 12 be 92 d1 21 3e 83 54 4f 3e 79 43 5e bd
       -0.14260247 0.15802601 0.20247082 -0.054263566

layers.2.bias f4 [8]
000000 d1 36 79 3e 96 5e e3 bd e0 33 5d 3e b0 a2 6e 3e
       0.24337317 -0.11102025 0.2160182 0.23304248
000010 ab d5 5b 3d 74 1e 4b be e2 3b 26 3e f0 5b 13 3e
       0.053670567 -0.19835836 0.16233781 0.1439054

layers.4.weight f4 [1, 8]
000000 22 26 7c 3e e8 e2 1b be 6e 35 9a 3e 85 18 49 3e
       0.24623922 -0.15223277 0.3011889 0.1963826
000010 02 a6 8d be 18 06 2e 3d 2e 78 9f be 2a db 43 3e
       -0.27665716 0.04248628 -0.31146377 0.19126573
